…
torch.Size([1, 3, 313, 500]) real
torch.Size([1, 3, 28, 44])
torch.Size([1, 3, 37, 59])
torch.Size([1, 3, 49, 79])
torch.Size([1, 3, 66, 105])
torch.Size([1, 3, 87, 139])
torch.Size([1, 3, 116, 186])
torch.Size([1, 3, 155, 247])
torch.Size([1, 3, 206, 330])
torch.Size([1, 3, 275, 439])
torch.Size([1, 3, 313, 500])
torch.Size([1, 3, 28, 44])
torch.Size([1, 3, 37, 59])
torch.Size([1, 3, 49, 79])
torch.Size([1, 3, 66, 105])
torch.Size([1, 3, 87, 139])
torch.Size([1, 3, 116, 186])
torch.Size([1, 3, 155, 247])
torch.Size([1, 3, 206, 330])
torch.Size([1, 3, 275, 439])
GeneratorConcatSkip2CleanAdd(
  (head): ConvBlock(
    (conv): Conv2d(3, 32, kernel_size=(3, 3), stride=(1, 1))
    (norm): BatchNorm2d(32, eps=1e-05, momentum=0.1, affine=True, track_running_stats=True)
    (LeakyRelu): LeakyReLU(negative_slope=0.2, inplace=True)
  )
  (body): Sequential(
    (block1): ConvBlock(
      (conv): Conv2d(32, 32, kernel_size=(3, 3), stride=(1, 1))
      (norm): BatchNorm2d(32, eps=1e-05, momentum=0.1, affine=True, track_running_stats=True)
      (LeakyRelu): LeakyReLU(negative_slope=0.2, inplace=True)
    )
    (block2): ConvBlock(
      (conv): Conv2d(32, 32, kernel_size=(3, 3), stride=(1, 1))
      (norm): BatchNorm2d(32, eps=1e-05, momentum=0.1, affine=True, track_running_stats=True)
      (LeakyRelu): LeakyReLU(negative_slope=0.2, inplace=True)
    )
    (block3): ConvBlock(
      (conv): Conv2d(32, 32, kernel_size=(3, 3), stride=(1, 1))
      (norm): BatchNorm2d(32, eps=1e-05, momentum=0.1, affine=True, track_running_stats=True)
      (LeakyRelu): LeakyReLU(negative_slope=0.2, inplace=True)
    )
  )
  (tail): Sequential(
    (0): Conv2d(32, 3, kernel_size=(3, 3), stride=(1, 1))
    (1): Tanh()
  )
)
WDiscriminator(
  (head): ConvBlock(
    (conv): Conv2d(3, 32, kernel_size=(3, 3), stride=(1, 1))
    (norm): BatchNorm2d(32, eps=1e-05, momentum=0.1, affine=True, track_running_stats=True)
    (LeakyRelu): LeakyReLU(negative_slope=0.2, inplace=True)
  )
  (body): Sequential(
    (block1): ConvBlock(
      (conv): Conv2d(32, 32, kernel_size=(3, 3), stride=(1, 1))
      (norm): BatchNorm2d(32, eps=1e-05, momentum=0.1, affine=True, track_running_stats=True)
      (LeakyRelu): LeakyReLU(negative_slope=0.2, inplace=True)
    )
    (block2): ConvBlock(
      (conv): Conv2d(32, 32, kernel_size=(3, 3), stride=(1, 1))
      (norm): BatchNorm2d(32, eps=1e-05, momentum=0.1, affine=True, track_running_stats=True)
      (LeakyRelu): LeakyReLU(negative_slope=0.2, inplace=True)
    )
    (block3): ConvBlock(
      (conv): Conv2d(32, 32, kernel_size=(3, 3), stride=(1, 1))
      (norm): BatchNorm2d(32, eps=1e-05, momentum=0.1, affine=True, track_running_stats=True)
      (LeakyRelu): LeakyReLU(negative_slope=0.2, inplace=True)
    )
  )
  (tail): Conv2d(32, 1, kernel_size=(3, 3), stride=(1, 1))
)
scale 0:[0/2000], total time: 0.075742
scale 0:[100/2000], total time: 0.068653
scale 0:[200/2000], total time: 0.066787
scale 0:[300/2000], total time: 0.074286
scale 0:[400/2000], total time: 0.068215
scale 0:[500/2000], total time: 0.073875
scale 0:[600/2000], total time: 0.070673
scale 0:[700/2000], total time: 0.069163
scale 0:[800/2000], total time: 0.069480
…
scale 3:[800/2000], total time: 0.091502
scale 3:[900/2000], total time: 0.094164
scale 3:[1000/2000], total time: 0.091714
scale 3:[1100/2000], total time: 0.099318
scale 3:[1200/2000], total time: 0.099111
scale 3:[1300/2000], total time: 0.094627
scale 3:[1400/2000], total time: 0.093213
scale 3:[1500/2000], total time: 0.090469
scale 3:[1600/2000], total time: 0.094933
scale 3:[1700/2000], total time: 0.096028
scale 3:[1800/2000], total time: 0.094334
scale 3:[1900/2000], total time: 0.095872
scale 3:[1999/2000], total time: 0.093996
GeneratorConcatSkip2CleanAdd(
  (head): ConvBlock(
    (conv): Conv2d(3, 64, kernel_size=(3, 3), stride=(1, 1))
    (norm): BatchNorm2d(64, eps=1e-05, momentum=0.1, affine=True, track_running_stats=True)
    (LeakyRelu): LeakyReLU(negative_slope=0.2, inplace=True)
  )
  (body): Sequential(
    (block1): ConvBlock(
      (conv): Conv2d(64, 64, kernel_size=(3, 3), stride=(1, 1))
      (norm): BatchNorm2d(64, eps=1e-05, momentum=0.1, affine=True, track_running_stats=True)
      (LeakyRelu): LeakyReLU(negative_slope=0.2, inplace=True)
    )
    (block2): ConvBlock(
      (conv): Conv2d(64, 64, kernel_size=(3, 3), stride=(1, 1))
      (norm): BatchNorm2d(64, eps=1e-05, momentum=0.1, affine=True, track_running_stats=True)
      (LeakyRelu): LeakyReLU(negative_slope=0.2, inplace=True)
    )
    (block3): ConvBlock(
      (conv): Conv2d(64, 64, kernel_size=(3, 3), stride=(1, 1))
      (norm): BatchNorm2d(64, eps=1e-05, momentum=0.1, affine=True, track_running_stats=True)
      (LeakyRelu): LeakyReLU(negative_slope=0.2, inplace=True)
    )
  )
  (tail): Sequential(
    (0): Conv2d(64, 3, kernel_size=(3, 3), stride=(1, 1))
    (1): Tanh()
  )
)
WDiscriminator(
  (head): ConvBlock(
    (conv): Conv2d(3, 64, kernel_size=(3, 3), stride=(1, 1))
    (norm): BatchNorm2d(64, eps=1e-05, momentum=0.1, affine=True, track_running_stats=True)
    (LeakyRelu): LeakyReLU(negative_slope=0.2, inplace=True)
  )
  (body): Sequential(
    (block1): ConvBlock(
      (conv): Conv2d(64, 64, kernel_size=(3, 3), stride=(1, 1))
      (norm): BatchNorm2d(64, eps=1e-05, momentum=0.1, affine=True, track_running_stats=True)
      (LeakyRelu): LeakyReLU(negative_slope=0.2, inplace=True)
    )
    (block2): ConvBlock(
      (conv): Conv2d(64, 64, kernel_size=(3, 3), stride=(1, 1))
      (norm): BatchNorm2d(64, eps=1e-05, momentum=0.1, affine=True, track_running_stats=True)
      (LeakyRelu): LeakyReLU(negative_slope=0.2, inplace=True)
    )
    (block3): ConvBlock(
      (conv): Conv2d(64, 64, kernel_size=(3, 3), stride=(1, 1))
      (norm): BatchNorm2d(64, eps=1e-05, momentum=0.1, affine=True, track_running_stats=True)
      (LeakyRelu): LeakyReLU(negative_slope=0.2, inplace=True)
    )
  )
  (tail): Conv2d(64, 1, kernel_size=(3, 3), stride=(1, 1))
)
scale 4:[0/2000], total time: 0.394022
scale 4:[100/2000], total time: 0.410180
scale 4:[200/2000], total time: 0.409720
scale 4:[300/2000], total time: 0.410850
scale 4:[400/2000], total time: 0.407592
scale 4:[500/2000], total time: 0.410043
scale 4:[600/2000], total time: 0.409029
scale 4:[700/2000], total time: 0.407942
scale 4:[800/2000], total time: 0.410508
…
scale 7:[800/2000], total time: 0.752073
scale 7:[900/2000], total time: 0.746468
scale 7:[1000/2000], total time: 0.749587
scale 7:[1100/2000], total time: 0.749275
scale 7:[1200/2000], total time: 0.748611
scale 7:[1300/2000], total time: 0.745697
scale 7:[1400/2000], total time: 0.750094
scale 7:[1500/2000], total time: 0.749164
scale 7:[1600/2000], total time: 0.748813
scale 7:[1700/2000], total time: 0.749142
scale 7:[1800/2000], total time: 0.748105
scale 7:[1900/2000], total time: 0.749194
scale 7:[1999/2000], total time: 0.750501
GeneratorConcatSkip2CleanAdd(
  (head): ConvBlock(
    (conv): Conv2d(3, 128, kernel_size=(3, 3), stride=(1, 1))
    (norm): BatchNorm2d(128, eps=1e-05, momentum=0.1, affine=True, track_running_stats=True)
    (LeakyRelu): LeakyReLU(negative_slope=0.2, inplace=True)
  )
  (body): Sequential(
    (block1): ConvBlock(
      (conv): Conv2d(128, 128, kernel_size=(3, 3), stride=(1, 1))
      (norm): BatchNorm2d(128, eps=1e-05, momentum=0.1, affine=True, track_running_stats=True)
      (LeakyRelu): LeakyReLU(negative_slope=0.2, inplace=True)
    )
    (block2): ConvBlock(
      (conv): Conv2d(128, 128, kernel_size=(3, 3), stride=(1, 1))
      (norm): BatchNorm2d(128, eps=1e-05, momentum=0.1, affine=True, track_running_stats=True)
      (LeakyRelu): LeakyReLU(negative_slope=0.2, inplace=True)
    )
    (block3): ConvBlock(
      (conv): Conv2d(128, 128, kernel_size=(3, 3), stride=(1, 1))
      (norm): BatchNorm2d(128, eps=1e-05, momentum=0.1, affine=True, track_running_stats=True)
      (LeakyRelu): LeakyReLU(negative_slope=0.2, inplace=True)
    )
  )
  (tail): Sequential(
    (0): Conv2d(128, 3, kernel_size=(3, 3), stride=(1, 1))
    (1): Tanh()
  )
)
WDiscriminator(
  (head): ConvBlock(
    (conv): Conv2d(3, 128, kernel_size=(3, 3), stride=(1, 1))
    (norm): BatchNorm2d(128, eps=1e-05, momentum=0.1, affine=True, track_running_stats=True)
    (LeakyRelu): LeakyReLU(negative_slope=0.2, inplace=True)
  )
  (body): Sequential(
    (block1): ConvBlock(
      (conv): Conv2d(128, 128, kernel_size=(3, 3), stride=(1, 1))
      (norm): BatchNorm2d(128, eps=1e-05, momentum=0.1, affine=True, track_running_stats=True)
      (LeakyRelu): LeakyReLU(negative_slope=0.2, inplace=True)
    )
    (block2): ConvBlock(
      (conv): Conv2d(128, 128, kernel_size=(3, 3), stride=(1, 1))
      (norm): BatchNorm2d(128, eps=1e-05, momentum=0.1, affine=True, track_running_stats=True)
      (LeakyRelu): LeakyReLU(negative_slope=0.2, inplace=True)
    )
    (block3): ConvBlock(
      (conv): Conv2d(128, 128, kernel_size=(3, 3), stride=(1, 1))
      (norm): BatchNorm2d(128, eps=1e-05, momentum=0.1, affine=True, track_running_stats=True)
      (LeakyRelu): LeakyReLU(negative_slope=0.2, inplace=True)
    )
  )
  (tail): Conv2d(128, 1, kernel_size=(3, 3), stride=(1, 1))
)
scale 8:[0/2000], total time: 2.424589
scale 8:[100/2000], total time: 3.099766
scale 8:[200/2000], total time: 3.076090
scale 8:[300/2000], total time: 3.083616
scale 8:[400/2000], total time: 3.071374
scale 8:[500/2000], total time: 3.059395
scale 8:[600/2000], total time: 3.041446
scale 8:[700/2000], total time: 3.066941
scale 8:[800/2000], total time: 3.060791
…
